…
  BASE_LR: 0.001
  CLIP_GRAD: 5.0
  EPOCHS: 1000
  LR_SCHEDULER:
    DECAY_EPOCHS: 30
    DECAY_RATE: 0.1
    NAME: cosine
  MIN_LR: 1.0e-05
  OPTIMIZER:
    BETAS:
    - 0.9
    - 0.999
    EPS: 1.0e-08
    MOMENTUM: 0.9
    NAME: adamw
  START_EPOCH: 0
  USE_CHECKPOINT: false
  WARMUP_EPOCHS: 20
  WARMUP_LR: 1.0e-06
  WEIGHT_DECAY: 0.05

[2022-02-13 00:21:26 cluster_patch1_cifar_multi_fix_size] (main.py 84): INFO Creating model:cluster/cluster_patch1_cifar_multi_fix_size
[2022-02-13 00:21:27 cluster_patch1_cifar_multi_fix_size] (main.py 88): INFO ClusterTransformer(
  (patch_embed): PatchEmbed(
    (proj): Conv2d(3, 96, kernel_size=(1, 1), stride=(1, 1))
    (norm): LayerNorm((96,), eps=1e-05, elementwise_affine=True)
  )
  (pos_drop): Dropout(p=0.0, inplace=False)
  (layers): ModuleList(
    (0): BasicLayer(
      dim=96, depth=2
      (blocks): ModuleList(
        (0): ClusterTransformerBlock(
          dim=96, num_heads=3, mlp_ratio=4.0
          (norm1): LayerNorm((96,), eps=1e-05, elementwise_affine=True)
          (attn): ClusterAttention(
            dim=96, num_heads=3
            (qkv): Linear(in_features=96, out_features=288, bias=True)
            (pos_mlp): Linear(in_features=2, out_features=3, bias=True)
            (attn_drop): Dropout(p=0.0, inplace=False)
            (proj): Linear(in_features=96, out_features=96, bias=True)
            (proj_drop): Dropout(p=0.0, inplace=False)
            (softmax): Softmax(dim=-1)
          )
          (drop_path): Identity()
          (norm2): LayerNorm((96,), eps=1e-05, elementwise_affine=True)
          (mlp): Mlp(
            (fc1): Linear(in_features=96, out_features=384, bias=True)
            (act): GELU()
            (fc2): Linear(in_features=384, out_features=96, bias=True)
            (drop): Dropout(p=0.0, inplace=False)
          )
        )
        (1): ClusterTransformerBlock(
          dim=96, num_heads=3, mlp_ratio=4.0
          (norm1): LayerNorm((96,), eps=1e-05, elementwise_affine=True)
          (attn): ClusterAttention(
            dim=96, num_heads=3
            (qkv): Linear(in_features=96, out_features=288, bias=True)
            (pos_mlp): Linear(in_features=2, out_features=3, bias=True)
            (attn_drop): Dropout(p=0.0, inplace=False)
            (proj): Linear(in_features=96, out_features=96, bias=True)
            (proj_drop): Dropout(p=0.0, inplace=False)
            (softmax): Softmax(dim=-1)
          )
          (drop_path): DropPath()
          (norm2): LayerNorm((96,), eps=1e-05, elementwise_affine=True)
          (mlp): Mlp(
            (fc1): Linear(in_features=96, out_features=384, bias=True)
            (act): GELU()
            (fc2): Linear(in_features=384, out_features=96, bias=True)
            (drop): Dropout(p=0.0, inplace=False)
          )
        )
      )
      (downsample): PatchMerging(
        dim=96
        (norm): LayerNorm((384,), eps=1e-05, elementwise_affine=True)
        (reduction): Linear(in_features=384, out_features=192, bias=False)
      )
    )
    (1): BasicLayer(
      dim=192, depth=2
      (blocks): ModuleList(
        (0): ClusterTransformerBlock(
          dim=192, num_heads=6, mlp_ratio=4.0
          (norm1): LayerNorm((192,), eps=1e-05, elementwise_affine=True)
          (attn): ClusterAttention(
            dim=192, num_heads=6
            (qkv): Linear(in_features=192, out_features=576, bias=True)
            (pos_mlp): Linear(in_features=2, out_features=6, bias=True)
            (attn_drop): Dropout(p=0.0, inplace=False)
            (proj): Linear(in_features=192, out_features=192, bias=True)
            (proj_drop): Dropout(p=0.0, inplace=False)
            (softmax): Softmax(dim=-1)
          )
          (drop_path): DropPath()
          (norm2): LayerNorm((192,), eps=1e-05, elementwise_affine=True)
          (mlp): Mlp(
            (fc1): Linear(in_features=192, out_features=768, bias=True)
            (act): GELU()
            (fc2): Linear(in_features=768, out_features=192, bias=True)
            (drop): Dropout(p=0.0, inplace=False)
          )
        )
        (1): ClusterTransformerBlock(
          dim=192, num_heads=6, mlp_ratio=4.0
          (norm1): LayerNorm((192,), eps=1e-05, elementwise_affine=True)
          (attn): ClusterAttention(
            dim=192, num_heads=6
            (qkv): Linear(in_features=192, out_features=576, bias=True)
            (pos_mlp): Linear(in_features=2, out_features=6, bias=True)
            (attn_drop): Dropout(p=0.0, inplace=False)
            (proj): Linear(in_features=192, out_features=192, bias=True)
            (proj_drop): Dropout(p=0.0, inplace=False)
            (softmax): Softmax(dim=-1)
          )
          (drop_path): DropPath()
          (norm2): LayerNorm((192,), eps=1e-05, elementwise_affine=True)
          (mlp): Mlp(
            (fc1): Linear(in_features=192, out_features=768, bias=True)
            (act): GELU()
            (fc2): Linear(in_features=768, out_features=192, bias=True)
            (drop): Dropout(p=0.0, inplace=False)
          )
        )
      )
      (downsample): PatchMerging(
        dim=192
        (norm): LayerNorm((768,), eps=1e-05, elementwise_affine=True)
        (reduction): Linear(in_features=768, out_features=384, bias=False)
      )
    )
    (2): BasicLayer(
      dim=384, depth=8
      (blocks): ModuleList(
        (0): ClusterTransformerBlock(
          dim=384, num_heads=12, mlp_ratio=4.0
          (norm1): LayerNorm((384,), eps=1e-05, elementwise_affine=True)
          (attn): ClusterAttention(
            dim=384, num_heads=12
            (qkv): Linear(in_features=384, out_features=1152, bias=True)
            (pos_mlp): Linear(in_features=2, out_features=12, bias=True)
            (attn_drop): Dropout(p=0.0, inplace=False)
            (proj): Linear(in_features=384, out_features=384, bias=True)
            (proj_drop): Dropout(p=0.0, inplace=False)
            (softmax): Softmax(dim=-1)
          )
          (drop_path): DropPath()
          (norm2): LayerNorm((384,), eps=1e-05, elementwise_affine=True)
          (mlp): Mlp(
            (fc1): Linear(in_features=384, out_features=1536, bias=True)
            (act): GELU()
            (fc2): Linear(in_features=1536, out_features=384, bias=True)
            (drop): Dropout(p=0.0, inplace=False)
          )
        )
        (1): ClusterTransformerBlock(
          dim=384, num_heads=12, mlp_ratio=4.0
          (norm1): LayerNorm((384,), eps=1e-05, elementwise_affine=True)
          (attn): ClusterAttention(
            dim=384, num_heads=12
            (qkv): Linear(in_features=384, out_features=1152, bias=True)
            (pos_mlp): Linear(in_features=2, out_features=12, bias=True)
            (attn_drop): Dropout(p=0.0, inplace=False)
            (proj): Linear(in_features=384, out_features=384, bias=True)
            (proj_drop): Dropout(p=0.0, inplace=False)
            (softmax): Softmax(dim=-1)
          )
          (drop_path): DropPath()
          (norm2): LayerNorm((384,), eps=1e-05, elementwise_affine=True)
          (mlp): Mlp(
            (fc1): Linear(in_features=384, out_features=1536, bias=True)
            (act): GELU()
            (fc2): Linear(in_features=1536, out_features=384, bias=True)
            (drop): Dropout(p=0.0, inplace=False)
          )
        )
        (2): ClusterTransformerBlock(
          dim=384, num_heads=12, mlp_ratio=4.0
          (norm1): LayerNorm((384,), eps=1e-05, elementwise_affine=True)
          (attn): ClusterAttention(
            dim=384, num_heads=12
            (qkv): Linear(in_features=384, out_features=1152, bias=True)
            (pos_mlp): Linear(in_features=2, out_features=12, bias=True)
            (attn_drop): Dropout(p=0.0, inplace=False)
            (proj): Linear(in_features=384, out_features=384, bias=True)
            (proj_drop): Dropout(p=0.0, inplace=False)
            (softmax): Softmax(dim=-1)
          )
          (drop_path): DropPath()
          (norm2): LayerNorm((384,), eps=1e-05, elementwise_affine=True)
          (mlp): Mlp(
            (fc1): Linear(in_features=384, out_features=1536, bias=True)
            (act): GELU()
            (fc2): Linear(in_features=1536, out_features=384, bias=True)
            (drop): Dropout(p=0.0, inplace=False)
          )
        )
        (3): ClusterTransformerBlock(
          dim=384, num_heads=12, mlp_ratio=4.0
          (norm1): LayerNorm((384,), eps=1e-05, elementwise_affine=True)
          (attn): ClusterAttention(
            dim=384, num_heads=12
            (qkv): Linear(in_features=384, out_features=1152, bias=True)
            (pos_mlp): Linear(in_features=2, out_features=12, bias=True)
            (attn_drop): Dropout(p=0.0, inplace=False)
            (proj): Linear(in_features=384, out_features=384, bias=True)
            (proj_drop): Dropout(p=0.0, inplace=False)
            (softmax): Softmax(dim=-1)
          )
          (drop_path): DropPath()
          (norm2): LayerNorm((384,), eps=1e-05, elementwise_affine=True)
          (mlp): Mlp(
            (fc1): Linear(in_features=384, out_features=1536, bias=True)
            (act): GELU()
            (fc2): Linear(in_features=1536, out_features=384, bias=True)
            (drop): Dropout(p=0.0, inplace=False)
          )
        )
        (4): ClusterTransformerBlock(
          dim=384, num_heads=12, mlp_ratio=4.0
          (norm1): LayerNorm((384,), eps=1e-05, elementwise_affine=True)
          (attn): ClusterAttention(
            dim=384, num_heads=12
            (qkv): Linear(in_features=384, out_features=1152, bias=True)
            (pos_mlp): Linear(in_features=2, out_features=12, bias=True)
            (attn_drop): Dropout(p=0.0, inplace=False)
            (proj): Linear(in_features=384, out_features=384, bias=True)
            (proj_drop): Dropout(p=0.0, inplace=False)
            (softmax): Softmax(dim=-1)
          )
          (drop_path): DropPath()
          (norm2): LayerNorm((384,), eps=1e-05, elementwise_affine=True)
          (mlp): Mlp(
            (fc1): Linear(in_features=384, out_features=1536, bias=True)
            (act): GELU()
            (fc2): Linear(in_features=1536, out_features=384, bias=True)
            (drop): Dropout(p=0.0, inplace=False)
          )
        )
        (5): ClusterTransformerBlock(
          dim=384, num_heads=12, mlp_ratio=4.0
          (norm1): LayerNorm((384,), eps=1e-05, elementwise_affine=True)
          (attn): ClusterAttention(
            dim=384, num_heads=12
            (qkv): Linear(in_features=384, out_features=1152, bias=True)
            (pos_mlp): Linear(in_features=2, out_features=12, bias=True)
            (attn_drop): Dropout(p=0.0, inplace=False)
            (proj): Linear(in_features=384, out_features=384, bias=True)
            (proj_drop): Dropout(p=0.0, inplace=False)
            (softmax): Softmax(dim=-1)
          )
          (drop_path): DropPath()
          (norm2): LayerNorm((384,), eps=1e-05, elementwise_affine=True)
          (mlp): Mlp(
            (fc1): Linear(in_features=384, out_features=1536, bias=True)
            (act): GELU()
            (fc2): Linear(in_features=1536, out_features=384, bias=True)
            (drop): Dropout(p=0.0, inplace=False)
          )
        )
        (6): ClusterTransformerBlock(
          dim=384, num_heads=12, mlp_ratio=4.0
          (norm1): LayerNorm((384,), eps=1e-05, elementwise_affine=True)
          (attn): ClusterAttention(
            dim=384, num_heads=12
            (qkv): Linear(in_features=384, out_features=1152, bias=True)
            (pos_mlp): Linear(in_features=2, out_features=12, bias=True)
            (attn_drop): Dropout(p=0.0, inplace=False)
            (proj): Linear(in_features=384, out_features=384, bias=True)
            (proj_drop): Dropout(p=0.0, inplace=False)
            (softmax): Softmax(dim=-1)
          )
          (drop_path): DropPath()
          (norm2): LayerNorm((384,), eps=1e-05, elementwise_affine=True)
          (mlp): Mlp(
            (fc1): Linear(in_features=384, out_features=1536, bias=True)
            (act): GELU()
            (fc2): Linear(in_features=1536, out_features=384, bias=True)
            (drop): Dropout(p=0.0, inplace=False)
          )
        )
        (7): ClusterTransformerBlock(
          dim=384, num_heads=12, mlp_ratio=4.0
          (norm1): LayerNorm((384,), eps=1e-05, elementwise_affine=True)
          (attn): ClusterAttention(
            dim=384, num_heads=12
            (qkv): Linear(in_features=384, out_features=1152, bias=True)
            (pos_mlp): Linear(in_features=2, out_features=12, bias=True)
            (attn_drop): Dropout(p=0.0, inplace=False)
            (proj): Linear(in_features=384, out_features=384, bias=True)
            (proj_drop): Dropout(p=0.0, inplace=False)
            (softmax): Softmax(dim=-1)
          )
          (drop_path): DropPath()
          (norm2): LayerNorm((384,), eps=1e-05, elementwise_affine=True)
          (mlp): Mlp(
            (fc1): Linear(in_features=384, out_features=1536, bias=True)
            (act): GELU()
            (fc2): Linear(in_features=1536, out_features=384, bias=True)
            (drop): Dropout(p=0.0, inplace=False)
          )
        )
      )
    )
  )
  (norm): LayerNorm((384,), eps=1e-05, elementwise_affine=True)
  (avgpool): AdaptiveAvgPool1d(output_size=1)
  (head): Linear(in_features=384, out_features=10, bias=True)
)
[2022-02-13 00:21:27 cluster_patch1_cifar_multi_fix_size] (main.py 97): INFO number of params: 15685600
[2022-02-13 00:21:27 cluster_patch1_cifar_multi_fix_size] (main.py 100): INFO number of GFLOPs: 0.0
[2022-02-13 00:21:27 cluster_patch1_cifar_multi_fix_size] (main.py 124): INFO no checkpoint found in output/cluster_patch1_cifar_multi_fix_size/default, ignoring auto resume
…
